…
[2023-10-12 18:05:40,764][INFO]     dcorcoef = 0.01
[2023-10-12 18:05:40,764][INFO]     labelconfusion = 0
[2023-10-12 18:05:40,764][INFO] >>> Prepare for vFL training...
[2023-10-12 18:05:40,842][INFO] Note: NumExpr detected 16 cores but "NUMEXPR_MAX_THREADS" not set, so enforcing safe limit of 8.
[2023-10-12 18:05:40,842][INFO] NumExpr defaulting to 8 threads.
[2023-10-12 18:05:43,553][INFO] train set: 1000000
[2023-10-12 18:05:44,079][INFO] test set: 200000
[2023-10-12 18:05:44,314][INFO] host_bottom_model:
HostBottomModel(
  (embed_part): Embed(
    (embed_layers): ModuleDict(
      (embed_0): Embedding(26, 8)
      (embed_1): Embedding(9239, 8)
      (embed_2): Embedding(239685, 8)
      (embed_3): Embedding(10, 8)
      (embed_4): Embedding(3988, 8)
      (embed_5): Embedding(1886, 8)
      (embed_6): Embedding(4, 8)
      (embed_7): Embedding(281580, 8)
      (embed_8): Embedding(16, 8)
      (embed_9): Embedding(15, 8)
      (embed_10): Embedding(45510, 8)
      (embed_11): Embedding(72, 8)
      (embed_12): Embedding(33803, 8)
    )
  )
  (deep_part): Deep(
    (dnn): ModuleList(
      (0): Linear(in_features=110, out_features=512, bias=True)
      (1): Linear(in_features=512, out_features=256, bias=True)
      (2): Linear(in_features=256, out_features=64, bias=True)
    )
    (dropout): Dropout(p=0.0, inplace=False)
    (relu): ReLU()
  )
)
[2023-10-12 18:05:44,316][INFO] guest_bottom_model:
GuestBottomModel(
  (wide_embed): Embed(
    (embed_layers): ModuleDict(
      (embed_0): Embedding(1293, 8)
      (embed_1): Embedding(532, 8)
      (embed_2): Embedding(378254, 8)
      (embed_3): Embedding(137941, 8)
      (embed_4): Embedding(273, 8)
      (embed_5): Embedding(16, 8)
      (embed_6): Embedding(11011, 8)
      (embed_7): Embedding(574, 8)
      (embed_8): Embedding(3, 8)
      (embed_9): Embedding(32997, 8)
      (embed_10): Embedding(4776, 8)
      (embed_11): Embedding(314932, 8)
      (embed_12): Embedding(3072, 8)
    )
  )
  (deep_embed): Embed(
    (embed_layers): ModuleDict(
      (embed_0): Embedding(1293, 8)
      (embed_1): Embedding(532, 8)
      (embed_2): Embedding(378254, 8)
      (embed_3): Embedding(137941, 8)
      (embed_4): Embedding(273, 8)
      (embed_5): Embedding(16, 8)
      (embed_6): Embedding(11011, 8)
      (embed_7): Embedding(574, 8)
      (embed_8): Embedding(3, 8)
      (embed_9): Embedding(32997, 8)
      (embed_10): Embedding(4776, 8)
      (embed_11): Embedding(314932, 8)
      (embed_12): Embedding(3072, 8)
    )
  )
  (wide_sparse_part): Wide(
    (fc): Linear(in_features=104, out_features=1, bias=True)
  )
  (wide_dense_part): Wide(
    (fc): Linear(in_features=7, out_features=1, bias=True)
  )
  (deep_part): Deep(
    (dnn): ModuleList(
      (0): Linear(in_features=111, out_features=512, bias=True)
      (1): Linear(in_features=512, out_features=256, bias=True)
      (2): Linear(in_features=256, out_features=64, bias=True)
    )
    (dropout): Dropout(p=0.0, inplace=False)
    (relu): ReLU()
  )
)
[2023-10-12 18:05:44,317][INFO] guest_top_model:
GuestTopModel(
  (deep_part): Deep(
    (dnn): ModuleList(
      (0): Linear(in_features=128, out_features=1, bias=True)
    )
    (dropout): Dropout(p=0.0, inplace=False)
    (relu): ReLU()
  )
  (relu): ReLU()
)
[2023-10-12 18:05:44,318][INFO] 
[2023-10-12 18:05:44,319][INFO] >>> vFL training and evaluating starts...
[2023-10-12 18:05:44,319][INFO] 
[2023-10-12 18:05:44,319][INFO] Epoch [1 | 5]:   BatchSize = 1024	hostLR = 0.0500000  guestLR = 0.0500000  topLR = 0.0500000
…
