…
[2023-10-19 14:23:19,387][INFO]     dcorcoef = 0.01
[2023-10-19 14:23:19,387][INFO]     labelconfusion = 0
[2023-10-19 14:23:19,387][INFO] >>> Prepare for vFL training...
[2023-10-19 14:23:19,467][INFO] Note: NumExpr detected 16 cores but "NUMEXPR_MAX_THREADS" not set, so enforcing safe limit of 8.
[2023-10-19 14:23:19,467][INFO] NumExpr defaulting to 8 threads.
[2023-10-19 14:23:22,555][INFO] train set: 2598552
[2023-10-19 14:23:25,267][INFO] test set: 2432490
[2023-10-19 14:23:25,405][INFO] host_bottom_model:
HostBottomModel(
  (embed_part): Embed(
    (embed_layers): ModuleDict(
      (embed_0): Embedding(5, 4)
      (embed_1): Embedding(5, 4)
      (embed_2): Embedding(5, 4)
      (embed_3): Embedding(5, 4)
      (embed_4): Embedding(3, 4)
    )
  )
  (deep_part): Deep(
    (dnn): ModuleList(
      (0): Linear(in_features=21, out_features=256, bias=True)
      (1): Linear(in_features=256, out_features=64, bias=True)
      (2): Linear(in_features=64, out_features=32, bias=True)
    )
    (dropout): Dropout(p=0.0, inplace=False)
    (relu): ReLU()
  )
)
[2023-10-19 14:23:25,406][INFO] guest_bottom_model:
GuestBottomModel(
  (wide_embed): Embed(
    (embed_layers): ModuleDict(
      (embed_0): Embedding(5, 4)
      (embed_1): Embedding(9, 4)
      (embed_2): Embedding(10, 4)
      (embed_3): Embedding(10, 4)
      (embed_4): Embedding(10, 4)
      (embed_5): Embedding(10, 4)
      (embed_6): Embedding(3, 4)
      (embed_7): Embedding(4, 4)
      (embed_8): Embedding(5, 4)
      (embed_9): Embedding(12, 4)
    )
  )
  (deep_embed): Embed(
    (embed_layers): ModuleDict(
      (embed_0): Embedding(5, 4)
      (embed_1): Embedding(9, 4)
      (embed_2): Embedding(10, 4)
      (embed_3): Embedding(10, 4)
      (embed_4): Embedding(10, 4)
      (embed_5): Embedding(10, 4)
      (embed_6): Embedding(3, 4)
      (embed_7): Embedding(4, 4)
      (embed_8): Embedding(5, 4)
      (embed_9): Embedding(12, 4)
    )
  )
  (wide_sparse_part): Wide(
    (fc): Linear(in_features=40, out_features=1, bias=True)
  )
  (wide_dense_part): Wide(
    (fc): Linear(in_features=5, out_features=1, bias=True)
  )
  (deep_part): Deep(
    (dnn): ModuleList(
      (0): Linear(in_features=45, out_features=256, bias=True)
      (1): Linear(in_features=256, out_features=64, bias=True)
      (2): Linear(in_features=64, out_features=32, bias=True)
    )
    (dropout): Dropout(p=0.0, inplace=False)
    (relu): ReLU()
  )
)
[2023-10-19 14:23:25,407][INFO] guest_top_model:
GuestTopModel(
  (deep_part): Deep(
    (dnn): ModuleList(
      (0): Linear(in_features=64, out_features=1, bias=True)
    )
    (dropout): Dropout(p=0.0, inplace=False)
    (relu): ReLU()
  )
  (relu): ReLU()
)
[2023-10-19 14:23:25,408][INFO] 
[2023-10-19 14:23:25,408][INFO] >>> vFL training and evaluating starts...
[2023-10-19 14:23:25,408][INFO] 
[2023-10-19 14:23:25,408][INFO] Epoch [1 | 5]:   BatchSize = 1024	hostLR = 0.0500000  guestLR = 0.0500000  topLR = 0.0500000
…
